TESS_PythonAPI_demo/8智慧高速管控决策仿真/net.pkl (torch, 91436 bytes, 15 tensors)

weight f4 [32, 6, 3, 3]
000000 79 b7 67 bd ca 11 0d be 59 36 1f bd 4e eb cc bd
       -0.056571458 -0.13776317 -0.03887019 -0.10005818
000010 80 41 a2 3d 11 43 1a bd 21 c8 b0 3d 9a 5b 00 3e
       0.079226494 -0.037661616 0.086319216 0.12534943
000020 36 b4 f0 bd 52 fe f9 bd 0e b3 b3 3d 82 72 44 3d
       -0.117531225 -0.12206711 0.08774386 0.047960766
000030 24 d1 32 bd 8e 95 36 bd 35 b2 f6 3d 57 db 57 bd
       -0.043656483 -0.04457622 0.12045709 -0.052699413
000040 41 80 d3 bd 5c 8a 4d 3c 3f 5f e7 3d 52 a5 c3 3d
       -0.10327197 0.0125451945 0.112974636 0.09553017
000050 dc 53 a1 3d 3d fe 6b 3d 0b f4 36 3d b0 8c e4 bd
       0.07877323 0.057615507 0.04466633 -0.111596465
000060 61 60 4b 3c 1d 86 0e 3e a3 ac e4 bd 56 a3 0c 3e
       0.012413115 0.13918348 -0.1116574 0.13734183
000070 8b 06 3e 3c e4 06 11 3e 12 d7 4f bc f6 b2 88 3d
       0.01159824 0.14162785 -0.012685554 0.06674759
000080 5a 4d de bc 72 bf 1a 3e 2f c7 a5 3d c9 15 04 be
       -0.027136493 0.15112093 0.08094632 -0.12898935
000090 b2 bd a5 bd de a9 d6 bc c1 9b 39 bd 12 5f e4 bd
       -0.08092822 -0.026204046 -0.045314554 -0.11150946
0000a0 aa 7d 5a bd 70 bb 21 3d 1f 28 24 bd 3b 7b 9f bd
       -0.0533425 0.039485395 -0.040077325 -0.07787176
0000b0 76 74 d3 bd 96 32 12 bd 95 ea 3f bd 0b 31 79 3c
       -0.103249475 -0.035692774 -0.046854574 0.015209447
0000c0 78 a0 ba 3d 11 16 de bd 9e 70 f9 bd 10 b8 c0 bd
       0.09112638 -0.108440526 -0.12179683 -0.09410107
0000d0 e1 f6 0d 3e cb c9 8f bc c5 b0 e7 bc 1a 9f 02 3e
       0.13863708 -0.017552277 -0.028282532 0.12756005
0000e0 69 6a 82 3d d4 f5 fb 3d 0f 85 41 3c f1 9b 0f be
       0.063679524 0.12302747 0.011811509 -0.1402433
0000f0 a0 c9 05 3e ce aa d7 bd 22 ac 4b bd 68 84 04 3e
       0.13065195 -0.10530625 -0.049724706 0.12941134
000100 d3 fd b9 3d f1 20 c3 bc 27 b6 66 bd 54 7e 93 3d
       0.09081616 -0.023819419 -0.056326058 0.072018296
000110 44 43 88 3d 16 27 03 3e bd 0d 7a bd 47 05 18 3c
       0.06653455 0.12807879 -0.061048258 0.009278602
000120 d2 88 a3 bb a6 1e 72 bd 3a 12 b4 3d ef bc ed bc
       -0.0049906755 -0.05911126 0.08792539 -0.029020755
000130 8d 12 93 bd 92 63 a4 bd 1f 2e 1d 3d 65 ca 0e bd
       -0.07181273 -0.08026804 0.038374063 -0.034860987
000140 a3 f5 90 bd b0 a0 20 bd 0a 3b 17 be 9e 2b ce 3d
       -0.070781015 -0.039215744 -0.14768615 0.10066913
000150 d7 26 b8 bd 62 b2 00 3e b9 54 af 3d 88 f4 a3 bd
       -0.08991783 0.12568048 0.085610814 -0.08005625
000160 0d 3e 1d 3d 85 fe cc bc 91 d0 0d bd 39 f5 c4 bd
       0.038389254 -0.025023708 -0.034622733 -0.09617085
000170 80 0c a1 bc 3e 3b a8 3d 68 dc b6 bd 32 24 f3 3d
       -0.01965928 0.082144246 -0.08928758 0.11872138
000180 ba da 9d 3d 63 ab a6 3d 32 4b fe bc 03 db 7a 3d
       0.077077344 0.08138158 -0.031041715 0.061244022
000190 e1 0d ea bc e6 ca 53 3d 36 ac ae bd 32 21 33 bd
       -0.028571071 0.05170717 -0.085289404 -0.04373283
0001a0 91 16 d0 3d b9 ad e9 bc 9d 9c b5 bd 16 1f 06 be
       0.10160554 -0.02852522 -0.08867762 -0.13097796
0001b0 df f1 f9 3d a0 64 5b bd 41 c5 cf 3d 5c 6a ba bd
       0.122043364 -0.05356276 0.10145045 -0.09102318
0001c0 58 15 e8 bd 75 e1 ad bd 24 5b a6 3d 6f 62 91 3d
       -0.11332196 -0.08490268 0.081228524 0.07098853
0001d0 44 4b 39 3d 3f 9a e7 bd dd 24 2b bd 02 d7 04 bc
       0.045237795 -0.11308717 -0.041783202 -0.0081079025
0001e0 00 a7 61 3d 02 2d 2a 3e 8f 9e 17 3e d5 3f e6 3d
       0.055090904 0.16618732 0.14806579 0.11242644
0001f0 cc 10 1b bd 40 8c 37 bd 37 38 60 3d 29 dd 8c bd
       -0.037857816 -0.044811487 0.05474111 -0.068781205
000200 b5 1c 30 bd c8 03 7d 3d f0 da 83 3d c6 55 6d bd
       -0.042996127 0.061771184 0.064382434 -0.057943128
000210 3c b3 38 bd 1c 78 bb 3d 95 cc 6e bd e3 86 0a be
       -0.045092806 0.091537684 -0.058300573 -0.13528018
000220 07 09 ca bd 2b b3 84 bd 46 09 9a bc ed a8 8a bc
       -0.09865003 -0.06479486 -0.01880325 -0.016926253
000230 78 51 46 bd f3 21 80 3d 79 8c 08 bd 4e 78 f8 3d
       -0.04841754 0.06256475 -0.03333709 0.12132321
000240 37 e3 e5 3d d4 5d 09 be bc 50 c4 3d cf de 18 be
       0.112249784 -0.13414699 0.09585711 -0.14928745
000250 65 58 08 bb e3 75 cd 3d 3f be 0c be 8e 13 1c 3e
       -0.002080464 0.10032251 -0.13744448 0.15241835
000260 fe 94 99 3a c3 3a bb bd 38 af d2 3d e8 9f 97 bd
       0.0011717377 -0.09142067 0.102873266 -0.074035466
000270 ac a7 f0 bd 7a 75 49 bd bc 2a c3 bd 13 23 76 3a
       -0.11750731 -0.0491843 -0.09529635 0.0009389382
000280 81 09 0b 3e 7a 86 83 3d 15 b1 21 3b 97 81 af 3d
       0.13577844 0.06422134 0.00246722 0.08569639
000290 e2 34 8d 3c a8 6d fb bc b8 cb b9 3d 41 a3 92 bc
       0.01723713 -0.030691937 0.090720594 -0.017900111
0002a0 14 8b 90 bc 8a b0 c1 3d 9b db 03 3e d4 7f 00 3d
       -0.017644443 0.094575 0.12876742 0.031371906
0002b0 ba 88 8c bd 58 b9 1f 3b 89 9a 4b bd e6 5b d9 bd
       -0.06862016 0.0024371948 -0.049707923 -0.10613231
0002c0 e7 10 0b 3d 68 de 3b 3d 5e 6b 73 bd 0d 25 9e 3d
       0.033951666 0.0458664 -0.059428565 0.077219106
0002d0 68 7f d8 3c 99 e1 bc bd b9 1e 09 bd d1 ac b3 bd
       0.02642794 -0.09222717 -0.033476565 -0.087731965
0002e0 1c b1 c3 3c c5 74 14 bd e1 ae ec bd f2 20 94 bd
       0.023888163 -0.036244173 -0.11556793 -0.07232846
0002f0 4e 55 bb bd d8 32 de bd a0 fc 94 3c b5 53 0e bb
       -0.0914713 -0.108495414 0.018186867 -0.0021717374
000300 38 3f 00 3d c0 54 31 3d 04 97 e1 bd 70 70 a3 bd
       0.03131029 0.043293715 -0.11015132 -0.0798043
000310 e3 ea a9 3d 33 a5 f4 3d bd 58 80 3d ae 8a a3 3d
       0.08296754 0.11945572 0.062669255 0.079854354
000320 8c 19 df bd 77 9e 2a be 74 ba c8 3d 9c 31 7f 3d
       -0.108935446 -0.16662012 0.09801188 0.06230317
000330 ef 64 a5 3d c8 81 e0 bd 1e 8e 7d bd 56 9a 00 bc
       0.08075892 -0.10962254 -0.06190311 -0.007849297
000340 d7 54 11 be 21 a4 ef 3d ca d5 25 3c 8d 6d 8c 3d
       -0.1419252 0.11701227 0.010121772 0.06856833
000350 fc cf 10 bd d4 01 15 bc 58 22 05 3e b8 c6 20 bc
       -0.0353546 -0.009094674 0.13001382 -0.009813003
000360 fa ee 13 3e 3d 27 a2 3c 63 38 89 bd 53 5c 80 bd
       0.14446631 0.0197941 -0.06700208 -0.062676094
000370 24 e4 1f be 7e db d2 bd 7e a2 94 bd 31 d0 9d 3d
       -0.15614372 -0.10295771 -0.072575554 0.07705725
000380 59 65 cb bb 2d e2 6a 3d c0 b4 13 3d e6 00 6f bc
       -0.00620715 0.057344604 0.03606105 -0.014587617
000390 c7 c4 0a bd a6 f6 2a bd 88 16 63 bb 07 df 61 bd
       -0.033879068 -0.04173913 -0.003465088 -0.055144336
0003a0 ee da 85 bd de 72 83 bd c9 52 88 3d dd 4f 10 bd
       -0.06535898 -0.064183936 0.06656415 -0.035232414
0003b0 e4 31 98 bd 8a 30 af bd 1a 02 01 3e 38 e6 ca 3d
       -0.07431391 -0.0855418 0.12598458 0.09907192
0003c0 4e 4e 3b 3d 39 8d 4c bc b2 0b e2 3d 68 bd b9 3d
       0.045728974 -0.012484842 0.11037387 0.090693295
0003d0 ed 01 ec bd 76 03 bb 3d da 29 ac 3c 21 38 c0 3d
       -0.11523805 0.091315195 0.02101605 0.09385706
0003e0 a4 83 89 ba 4d 0c 87 3d 6d d5 d3 3d 48 5f b6 3d
       -0.0010491502 0.06594143 0.10343442 0.08904892
0003f0 7d 0c 12 3e fe 0c 17 3e cd da d6 3d ec 6d c9 bd
       0.14262576 0.1475105 0.10490952 -0.09835419

weight f4 [32]
000000 1f 20 80 3f 2e 82 81 3f 28 23 80 3f 99 18 7d 3f
       1.0009803 1.0117853 1.0010729 0.9886566
000010 63 2b 81 3f 9f 54 80 3f 0a 1a 81 3f 83 62 7d 3f
       1.0091366 1.0025824 1.0086071 0.9897844
000020 3d b9 81 3f 7f 7a 7f 3f 16 62 80 3f e1 5b 78 3f
       1.0134655 0.9979629 1.0029933 0.97015196
000030 89 10 82 3f c2 91 80 3f 51 20 7c 3f d9 2f 7e 3f
       1.0161296 1.0044482 0.9848681 0.9929176
000040 df 51 7b 3f 00 3a 7e 3f 3d a5 7c 3f 3f 9e 79 3f
       0.981718 0.9930725 0.98689634 0.9750709
000050 01 8b 81 3f a5 8a 7f 3f 5c ae 7c 3f f2 c0 7d 3f
       1.0120546 0.9982093 0.9870355 0.99122536
000060 bf e7 80 3f bc bd 7d 3f e9 c8 82 3f f3 5f 82 3f
       1.0070723 0.99117637 1.0217563 1.0185531
000070 3d 7a 81 3f 92 d4 84 3f ec 58 80 3f a3 7a 81 3f
       1.0115429 1.0377371 1.0027137 1.0115551

bias f4 [32]
000000 7e 90 06 3c 91 be c6 3b eb 27 21 bd f0 22 3f 3c
       0.008213161 0.0060651978 -0.03934471 0.011666045
000010 ec a5 f4 3c 3e 03 9e b9 23 f6 7c 3b e9 df f1 3a
       0.029864274 -0.00030138524 0.0038598857 0.0018453571
000020 7e 69 5d bc 1a 0c 92 bb 64 16 ba bc 29 1c 22 bc
       -0.013513921 -0.004457009 -0.022715755 -0.009894409
000030 05 e8 0e 3d 3f dd 8f b9 7a ca 37 3c fb ec 11 3d
       0.03488924 -0.00027439927 0.011217708 0.035626393
000040 87 5c 51 bc 72 0a ce bc 9d e0 51 bc 3c 08 03 3c
       -0.012778408 -0.025151465 -0.0128099 0.007997569
000050 9b dc 59 3c fe c7 b0 bc 93 94 c0 ba 95 f2 18 bc
       0.013297225 -0.021579739 -0.0014692716 -0.00933518
000060 4c 74 9d bc ef 5c dd 3b 4f 45 48 3c 56 5d 7c 3b
       -0.019220494 0.0067554633 0.012223556 0.003850778
000070 7f 19 9a bc 38 f6 ff 3a 2c 3a 84 bb 76 6a 9c bb
       -0.018810986 0.0019528335 -0.004035255 -0.0047734333

running_mean f4 [32]
000000 59 f7 cb 40 60 86 20 c1 97 60 de 3e 9d 3b 33 c1
       6.373944 -10.032806 0.43433067 -11.202054
000010 d2 c1 2f 41 86 5e 01 c1 42 eb 3a 3f 1e 54 a5 c0
       10.984819 -8.085577 0.73015225 -5.166518
000020 7e 89 31 41 20 6f 14 c0 80 d0 bd 40 e7 bd 6a 40
       11.096067 -2.3192825 5.9317017 3.6678407
000030 8d 7c 39 c1 c9 e9 29 41 8b 32 0c c1 ee 4e 62 41
       -11.592908 10.619576 -8.76234 14.14427
000040 ca 03 10 41 33 6b f7 c0 be 8c 9b c1 17 e3 34 c0
       9.000925 -7.731836 -19.443722 -2.8263605
000050 b9 67 d0 40 93 bc a4 3e 38 dc 10 3f 30 97 04 40
       6.5126615 0.3217512 0.5658603 2.0717278
000060 76 21 25 c1 ea 69 cb 3e 21 0b a9 c1 06 10 4b 40
       -10.320669 0.39729244 -21.130434 3.172853
000070 58 78 f3 3f 47 bb 82 c0 f2 23 77 c0 16 09 1f 40
       1.9021101 -4.085361 -3.861569 2.4849296

running_var f4 [32]
000000 2f 8c ec 42 d0 d2 07 42 fd 5a 80 42 f7 64 38 42
       118.273796 33.95587 64.17771 46.0986
000010 13 ef 96 42 ac ae 77 42 2e d4 55 42 9e b2 02 42
       75.46694 61.920578 53.457207 32.67443
000020 be d0 d1 41 e0 d7 31 42 b8 a2 f8 41 d6 bf 1e 43
       26.226925 44.460815 31.079453 158.74936
000030 7e 4a 4a 42 f6 85 2e 42 93 0f 8f 41 12 3b 8f 42
       50.572746 43.63082 17.882605 71.61537
000040 e7 36 93 42 bd a6 c6 42 04 3a 4a 42 41 4e b6 42
       73.60723 99.32566 50.556656 91.15284
000050 ca 37 01 42 37 0d 6b 41 e2 6d 27 42 a3 09 1e 43
       32.30448 14.690726 41.857307 158.03764
000060 bf 86 fa 41 9e a2 bd 42 54 02 35 42 bc 3c 50 42
       31.315794 94.81761 45.252274 52.05931
000070 1a e6 9f 42 0b d0 02 42 46 4e 86 42 3c 79 b6 42
       79.94942 32.703167 67.15288 91.236786

weight f4 [64, 32, 3, 3]
000000 20 c5 ee bc f0 90 f8 bb 18 b5 9f bb 90 1e 43 3d
       -0.02914673 -0.0075856373 -0.004873883 0.04763657
000010 d4 72 0f bd 96 4c 03 bd 28 de 21 bd c9 03 9c 3b
       -0.035021618 -0.03205546 -0.039518505 0.0047611934
000020 10 6b 0d bb e2 3c 30 bd 48 04 87 3b 33 ac 6f bd
       -0.0021578707 -0.043026812 0.0041203834 -0.05851383
000030 1c d1 e6 3c c9 f3 5e 3d 43 76 fe 3c 71 c4 5c 3d
       0.028175883 0.05443171 0.031062251 0.05389828
000040 ce 8c 0f 3d e5 d5 0b bd 78 cd 9f 3b f7 d7 39 3d
       0.03504639 -0.034139533 0.0048767887 0.045371976
000050 49 81 57 3d 6e 01 80 3d fa b3 07 bd b6 f5 05 bd
       0.05261353 0.06250273 -0.033130623 -0.03270503
000060 6f 47 1c bd 1b 33 2d 3d fa c1 f1 3c 26 79 1a bd
       -0.038154062 0.042285066 0.02951144 -0.037713192
000070 22 46 26 bd 22 ec a2 bc 22 81 33 bc fc 8a ce bc
       -0.040594228 -0.019887988 -0.010956081 -0.025212757
000080 e8 fb 82 bd e7 fd 6a 3b a7 de c8 3c 21 ff a7 3c
       -0.063957036 0.0035856904 0.024520231 0.020507397
000090 00 58 a1 ba b8 9b 8a 3b d6 17 de 3c 49 11 c2 bc
       -0.0012309551 0.004229989 0.027110975 -0.023689883
0000a0 25 88 b4 bc e8 bf aa 3c 05 97 57 bc 30 49 3f 3d
       -0.022037575 0.020843461 -0.013158564 0.046700656
0000b0 2b 6c 94 3d b0 98 7f bc df 36 66 3d 80 e3 18 bd
       0.07247194 -0.015600368 0.056204673 -0.037326336
0000c0 7f a8 49 bc 93 6c 7d bd 04 e5 26 3d 12 95 ff bc
       -0.012308239 -0.061871123 0.04074575 -0.031199012
0000d0 80 71 4b 3d 0c 5f 38 bc e8 66 cc bb 40 00 02 ba
       0.04966879 -0.01125313 -0.0062378533 -0.00049591437
0000e0 f1 ec 66 3d 54 40 03 bd c7 13 2c bd 43 0a 38 bd
       0.05637831 -0.03204377 -0.04201105 -0.04493166
0000f0 fe 03 19 bd 13 71 bd 3c d9 cc 13 bd c5 2e 59 3d
       -0.037357323 0.023125207 -0.03608403 0.05302312
000100 28 ba 13 bd 3a 70 18 bd 87 46 70 3c ce 6b ca 39
       -0.036066204 -0.037216403 0.0146652525 0.00038608763
000110 45 47 97 bb 45 6c 02 3a 8e 0e 6c bc 66 80 d2 bb
       -0.0046166503 0.000497524 -0.014407767 -0.0064239977
000120 18 f4 ff bc df e8 47 3d 64 ed 03 bc 17 85 e8 3b
       -0.031244323 0.048806068 -0.008052204 0.0070959437
000130 c4 8a 78 bc a9 72 e9 3c 41 50 43 bd a1 b1 3c 3d
       -0.015169803 0.028497057 -0.047683958 0.046067838
000140 d8 9a 80 3d 70 44 b9 bc 8d a9 49 3d 22 ff f2 3c
       0.06279534 -0.022615641 0.04923396 0.029662672
000150 17 7b 2e bd 77 3b 3c 3d 1f 05 5d bd 93 97 02 3c
       -0.042597856 0.045955148 -0.053959962 0.007970708
000160 08 d1 e7 39 23 0d 8b 3c 26 09 86 3c c0 65 eb 3a
       0.00044215494 0.016974038 0.016361784 0.0017959401
000170 9e 09 ca 3c 98 a3 8c 3d 03 7d 90 3c 49 b8 4e bc
       0.024662789 0.068671405 0.017637735 -0.012617179
000180 27 36 59 3d d1 7b ed 3c 43 07 bc 3c 02 9d 8c 3c
       0.05303016 0.028989704 0.022952681 0.01716471
000190 0a 1a 09 bd 00 da cf ba 32 73 cc bc e3 30 3c bd
       -0.0334721 -0.0015857816 -0.024957273 -0.04594506
0001a0 3a 20 f5 3c fa 56 40 bd 50 3a 7a bd 8f 36 2f bd
       0.029922593 -0.046957947 -0.061090767 -0.04277664
0001b0 55 78 1c bd df 21 3e 3d 20 97 28 bd ec b0 fb 3c
       -0.038200695 0.04641902 -0.04115975 0.030724011
0001c0 22 ee a2 3c e3 9c 7f 3b e3 d4 7d 3d 31 c7 5f bd
       0.019888941 0.0039003424 0.061970603 -0.054633323
0001d0 fd c3 3f 3d b2 16 a0 3c e8 70 5e bd 86 b5 fe 3c
       0.04681777 0.019542072 -0.054306895 0.031092416
0001e0 a3 ec 4f bc 2c 92 64 bc 3c ca 46 bd 23 c7 1f 3d
       -0.012690696 -0.013950866 -0.04853271 0.03900827
0001f0 a5 a5 79 ba de f7 22 bc bd 3b 10 bd 62 af d7 3c
       -0.0009523279 -0.009946791 -0.03521322 0.026328746
000200 1a 1b 98 3c 9e 79 76 ba f7 69 9f bc a8 06 b8 bc
       0.01856761 -0.00094022776 -0.019459708 -0.022464111
000210 20 bd 3b bc d5 01 50 bc bf f3 34 3d 7c 5f b3 bc
       -0.011458665 -0.012695749 0.044177767 -0.021896116
000220 d1 f6 08 3d 28 3b ab 3b 59 97 3f 3d da 39 e6 3c
       0.033438507 0.005225558 0.046775196 0.028103758
000230 76 42 65 bc 70 15 41 3d 9b 24 64 bd 6e 7b 41 bc
       -0.013992896 0.047139585 -0.055698972 -0.011809213
000240 ac 17 4a bc 10 f1 27 bb ab a5 0f 3d cf 59 58 bd
       -0.012334745 -0.0025625862 0.035070103 -0.052820023
000250 d3 0b 31 3c 38 b9 c2 bb 79 ad 09 bd b3 21 20 3d
       0.010806042 -0.00594249 -0.033612702 0.039094638
000260 3e 0f 9c 3c 0d 89 51 3d 62 85 f6 bc 14 a0 70 bd
       0.019050237 0.051156092 -0.030092899 -0.058746412
000270 69 cf 30 3d 6b 48 10 bd 95 9f c5 3c 0a a6 55 3d
       0.04316655 -0.035225313 0.024123946 0.0521603
000280 3b 0e 6a bd cb 19 ed 3c 17 c1 16 3d 3b dd 37 3d
       -0.057142477 0.028942963 0.03680524 0.044888716
000290 82 9e 9e bc f9 19 54 3d 06 08 16 bd 8f de e4 bc
       -0.019362692 0.051782582 -0.036628745 -0.027938155
0002a0 4d fc f9 3b c3 c1 aa 3c 0d 58 2f 3d 34 6b 39 bd
       0.0076289536 0.020844346 0.04280858 -0.045268252
0002b0 da ac 8d 3c 0e 44 03 bd 6b 40 ff bc e2 01 6d 3a
       0.017294336 -0.032047324 -0.031158647 0.0009041113
0002c0 15 49 ce 3c 21 7c 74 3d 26 ed ed bc c4 e7 3f bb
       0.025181333 0.05968869 -0.029043745 -0.002928243
0002d0 29 22 34 3d b8 38 8e 3b 74 a5 46 3c bf 27 2f bd
       0.04397789 0.0043402575 0.012124408 -0.042762514
0002e0 d9 05 90 bd c3 7f 68 3d a7 aa 88 3c a8 67 d9 bc
       -0.07032365 0.056762468 0.016682936 -0.026538685
0002f0 6c 63 7c 3d 0b 55 68 3d be 39 d2 3c 60 a9 04 3b
       0.061618254 0.05672173 0.0256623 0.0020242557
000300 94 81 64 bc e4 68 ba 3c b5 9d e6 3c 13 d8 84 3c
       -0.013946909 0.022755094 0.028151372 0.016216313
000310 d2 bb 7d bd 83 35 3e 3d b2 1e af 3c 26 00 b4 3c
       -0.061946698 0.04643775 0.021376941 0.021972727
000320 60 8a 5b bc 33 d7 b6 3c f7 00 80 bd 03 96 2e 3d
       -0.01339969 0.022319412 -0.06250184 0.04262353
000330 3c 7f a2 bb e2 06 83 bd f8 62 b3 bc 1e b3 bf 3c
       -0.004959015 -0.06397797 -0.021897778 0.02340084
000340 8c bf 20 bc 0f 77 1e 3d 73 82 4a 3d 7b e6 14 3c
       -0.009811293 0.038687762 0.049440812 0.009088154
000350 72 45 d5 3c 4e ab 77 3d 9d 46 05 3d 0a e1 2b 3d
       0.02603409 0.060466103 0.032538045 0.04196266
000360 17 24 24 3d 9e 0f a2 3c 0d 33 09 3d 3f a1 1f 3d
       0.04007348 0.019782837 0.03349595 0.038972136
000370 ba bd 24 bd 6a 34 d9 3c 1c e6 73 bc 15 fb 0a 3d
       -0.04022 0.02651425 -0.014886405 0.033930857
000380 18 6d 3b 3b 65 4e 28 bd 58 ef fd bb 5d 68 2d bd
       0.002859896 -0.041090388 -0.0077494793 -0.042335857
000390 d1 32 34 bd 1e ec 34 bd 53 f4 f3 3c f7 11 39 bd
       -0.043993775 -0.04417049 0.029779589 -0.04518315
0003a0 c1 fb c6 3c 81 cf cc 3c b4 e2 36 3c 70 7a cb bc
       0.024289967 0.02500129 0.011162449 -0.024838656
0003b0 96 6c 26 bd c7 ff 8e bb 59 00 ba 3c 15 5c 45 bd
       -0.0406309 -0.004363987 0.022705244 -0.04818352
0003c0 bc bf 6d bc 36 b2 05 3d 7c 6a 58 3c f8 f7 ca bb
       -0.014511045 0.03264066 0.013208982 -0.006194111
0003d0 2a 8c c9 bc 7a df c4 3c e6 a0 a7 3d a0 f8 e0 3b
       -0.024602968 0.024032343 0.08184986 0.006865576
0003e0 c6 bb be bc df 00 a0 3c 1f 3b 37 b9 33 c0 9d 3c
       -0.023282897 0.019531665 -0.00017474264 0.019256687
0003f0 34 bc 16 bd 66 45 e5 bc 78 0d 04 bd b1 04 40 3c
       -0.03680058 -0.027987193 -0.032239407 0.0117198685

weight f4 [64]
000000 5e 17 6f 3f 97 c5 7f 3f 70 b7 7c 3f 33 c5 7b 3f
       0.9339503 0.99910873 0.98717403 0.9834778
000010 8b dc 7f 3f 83 3c 7f 3f e4 ee 64 3f c3 1d 82 3f
       0.99945897 0.9970171 0.8942702 1.0165333
000020 d6 40 75 3f 56 27 73 3f c5 c4 7b 3f ac 3d 85 3f
       0.95802057 0.94981897 0.9834712 1.0409446
000030 8b a8 67 3f 14 54 81 3f 94 62 6a 3f ea 36 7c 3f
       0.9049155 1.0103784 0.9155667 0.9852129
000040 29 1f 72 3f aa 72 7d 3f 9e 76 81 3f 45 cd 7c 3f
       0.94578797 0.9900309 1.0114324 0.98750716
000050 06 a6 6f 3f fd f7 70 3f c9 0a 75 3f 45 b5 7b 3f
       0.93612707 0.941284 0.9571958 0.9832347
000060 4d a3 7c 3f a1 57 79 3f 5d 45 7d 3f 24 dd 7e 3f
       0.9868668 0.97399336 0.98933965 0.99556184
000070 e2 10 7b 3f d9 5d 69 3f 2d 8d 7d 3f 86 6a 83 3f
       0.98072636 0.91158825 0.9904354 1.0266883
000080 9b af 7f 3f 1e 3a 80 3f 0d c6 71 3f dd 6e 77 3f
       0.9987733 1.0017736 0.94442827 0.9665354
000090 81 22 7b 3f 8e b7 78 3f 91 c3 6c 3f 3a 3e 7c 3f
       0.98099524 0.9715508 0.9248591 0.9853245
0000a0 b5 cc 83 3f 13 f2 7b 3f 23 b4 80 3f ef a5 72 3f
       1.0296847 0.9841625 1.0054973 0.94784445
0000b0 48 70 6f 3f ce 2e 7e 3f c6 04 75 3f bc dc 7a 3f
       0.935307 0.9929017 0.9571041 0.97993064
0000c0 d7 1d 79 3f 54 33 81 3f 61 53 79 3f ca de 80 3f
       0.97311157 1.0093789 0.9739285 1.006799
0000d0 2f 60 6e 3f 34 3a 79 3f 62 60 61 3f 08 df 78 3f
       0.93115515 0.97354436 0.88037694 0.9721532
0000e0 62 81 7a 3f 82 32 7b 3f 2e 93 70 3f 81 18 6e 3f
       0.9785367 0.98123944 0.9397458 0.9300614
0000f0 3e f1 76 3f f6 30 70 3f 7d 24 7e 3f 60 a3 7d 3f
       0.96461856 0.9382471 0.99274427 0.99077415

bias f4 [64]
000000 4a 2a 89 bd 9e 91 e4 3a b9 cf 94 3c bb 03 93 bc
       -0.06697519 0.0017438417 0.018165456 -0.017946115
000010 e6 b4 7e 3c 90 25 b1 3b 58 f1 db bd 07 4d 11 bc
       0.015546059 0.005406089 -0.10739392 -0.008868462
000020 ec 5a 4b bd 76 04 4d bd 29 cd 86 bc b6 f2 07 bc
       -0.049647257 -0.050053082 -0.01645525 -0.008297613
000030 14 53 c1 bd c6 e7 9e 3b bb 21 ae bd 0c ba b8 3c
       -0.09439674 0.004849407 -0.08502527 0.022549652
000040 d5 38 6d bd 45 54 42 3c d0 4e c6 bb db d5 ab bc
       -0.057915527 0.011860912 -0.0060518757 -0.020975998
000050 db cb 8b bd af e8 8c bd df 5b 27 bd 7d ec 7c 3c
       -0.06825992 -0.068803184 -0.0408591 0.015437243
000060 78 b3 9e 3c 98 93 0c bd 80 a4 82 bc fb 09 d0 bb
       0.019372687 -0.034320444 -0.01594758 -0.006348846
000070 95 d7 d1 3c 90 09 b7 bd 98 10 82 bc 5d 6d 33 bc
       0.025615493 -0.08937371 -0.015877053 -0.010951367
000080 da f2 ba bb 57 b6 13 3b 85 e5 75 bd 71 7a 29 bd
       -0.0057052197 0.0022539103 -0.06003334 -0.041376535
000090 fe b6 c8 3c 9d da 1e bd 59 07 a7 bd e7 26 d7 bc
       0.02450132 -0.038782705 -0.08155698 -0.026263667
0000a0 d0 63 9a 38 3c 65 89 3c f8 9a 72 bb d3 f6 7b bd
       7.361884e-05 0.016771905 -0.0037018638 -0.061514687
0000b0 ee 35 8c bd 9b 5b 14 3c 96 a0 4c bd 8e 19 d3 3c
       -0.06846224 0.009055044 -0.049957834 0.025769021
0000c0 00 9a 0b bd c5 36 b0 bb ad 6a 29 bd 9a 71 8d 3b
       -0.034082413 -0.005377623 -0.0413615 0.004316521
0000d0 84 ad 95 bd 5e 05 05 bd 9c 61 ff bd 62 9a 0a bd
       -0.07308486 -0.03247582 -0.124697894 -0.033838637
0000e0 39 e7 f9 bc 6c 33 89 3c 4c 7c 87 bd 70 b1 8f bd
       -0.030505763 0.016748153 -0.066155046 -0.070162654
0000f0 0d 3c 25 bd 3d f4 87 bd f1 11 16 3c df 9f 85 bc
       -0.040340472 -0.06638382 0.009159551 -0.016311584

running_mean f4 [64]
000000 e0 0e 9f 3c 20 21 48 3c e9 93 1d 3e 52 08 64 3e
       0.019416273 0.012214929 0.15388454 0.22268799
000010 f5 9a 9f bd 4d d3 52 3e a8 c8 8f 3e dc 95 21 be
       -0.077932276 0.20588417 0.28082776 -0.15779823
000020 5a d6 46 be 23 83 4f 3e 7a b4 98 bd ea 45 03 be
       -0.19417706 0.20264868 -0.07456298 -0.12819639
000030 d9 0d 88 3e 2f eb 8e be 51 55 b5 bd e3 28 a7 be
       0.26573065 -0.27913806 -0.088541634 -0.32648382
000040 c2 f0 80 3c 3e da c7 3d 81 3e c2 3d 97 c7 0c 3e
       0.015739802 0.09758423 0.09484578 0.13748012
000050 a0 e3 6b 3e 33 4d 47 3d 94 9a 03 3e ce ea 75 be
       0.23036051 0.048657607 0.12851936 -0.24015352
000060 bc 19 f4 3c 8d 68 0b be 10 cf aa 3c 92 0b 73 3e
       0.029797427 -0.13614102 0.020850688 0.23734882
000070 76 fa 81 bd 3f ca 07 3c be 2d 40 3d fd dd 98 bd
       -0.063466 0.008287965 0.046918623 -0.07464216
000080 be c1 dd bd 54 d5 b9 bd 48 43 ad 3d f7 56 03 3e
       -0.10827969 -0.09073892 0.084600985 0.12826143
000090 3c 69 d6 bd a9 44 dd 3b 6f 78 2c 3e af e9 86 bd
       -0.104692906 0.0067525697 0.16842817 -0.0658754
0000a0 87 fb 8f bc 49 3d db bd ef ff aa 3e ee 17 32 3d
       -0.017575992 -0.107050486 0.33398387 0.043479852
0000b0 eb b1 8a 3e ff e3 ba bd b8 bb 9a 3d a6 20 97 be
       0.27088866 -0.09125518 0.07555336 -0.29517096
0000c0 4b 2d e7 be 1e 65 85 bc 03 65 7c 3d 70 18 51 3e
       -0.45151743 -0.016283568 0.06161977 0.20419478
0000d0 df 28 0e 3d 53 7b 02 3d 72 73 de 3d 51 ff 29 3e
       0.034706946 0.031855892 0.10861863 0.16601302
0000e0 71 59 1e 3e 7c 6e 20 3d e9 f1 7c bc ae 3e 26 3e
       0.15463807 0.039167866 -0.015438535 0.16234848
0000f0 4a e7 fd bd fe 62 26 3e 51 77 da 3d 60 34 0c be
       -0.123976305 0.162487 0.10667289 -0.13691854

running_var f4 [64]
000000 aa 6c 38 3c 1c e2 15 3d de 4b ee 3c 04 23 b8 3c
       0.011256376 0.036592588 0.02908891 0.022477634
000010 b0 42 8c 3d 4c b7 98 3d bf bd a3 3c 50 10 14 3d
       0.06848657 0.07456836 0.019987939 0.03614837
000020 60 28 94 3c b7 77 21 3c fe 89 4d 3d da 72 27 3e
       0.018085659 0.009855202 0.050180428 0.16352406
000030 77 07 6e 3c 1f a8 0f 3e e2 f3 18 3c 42 f7 a6 3d
       0.014528147 0.14028977 0.00933549 0.081526294
000040 3c 8f 73 3c 6a 23 33 3c 10 90 48 3d 61 92 b5 3d
       0.014865693 0.010933736 0.048965514 0.0886581
000050 dd d3 55 3c 5e 01 49 3c a7 7f 76 3c 31 a0 be 3e
       0.013051 0.012268392 0.015045083 0.3723159
000060 03 c4 87 3c f7 49 14 3c dd 1a 55 3d cb b4 4d 3d
       0.016572958 0.009050838 0.052027572 0.050221246
000070 df 82 80 3c e4 28 eb 3b bf d7 ce 3b 16 32 42 3c
       0.015687404 0.0071765054 0.00631234 0.011852762
000080 e8 2d 6c 3d 98 3b d0 3d 4c 0d 2c 3c ad 66 07 3d
       0.057660967 0.101676166 0.010501217 0.033056904
000090 9a 50 cf 3d d3 83 7e 3d a0 84 bc 3c 25 aa 90 3c
       0.101227954 0.062137436 0.02301246 0.017659256
0000a0 7f 5b ae 3d 4a db f4 3e 72 9d f3 3c ab 61 52 3c
       0.08513545 0.47823554 0.029738162 0.012840669
0000b0 ec dc ce 3c bd 7d 90 3c ec ee 73 3c a5 4e 39 3e
       0.025251828 0.017638082 0.014888506 0.18096407
0000c0 17 13 62 3c 0c 18 ad 3b e7 79 ed 3b 5e 4c f8 3d
       0.013798497 0.0052824076 0.007247198 0.12123941
0000d0 e5 c8 2f 3c 32 8d 10 3d f8 c1 be 3b 3d c4 07 3d
       0.010729049 0.035290904 0.0058214627 0.03314613
0000e0 14 12 9d 3c 77 89 39 3e cb 9b e0 3b 27 82 a4 3c
       0.01917366 0.18118845 0.0068545095 0.020081593
0000f0 7d be 5b 3c 5e e7 38 3d 78 d2 54 3c 11 ef 2d 3d
       0.013412115 0.045142524 0.012989633 0.04246432

weight f4 [64]
000000 de 42 8a 3f af b9 80 3f 71 4a 84 3f 3a e8 83 3f
       1.0801656 1.0056666 1.0335218 1.0305245
000010 8f d7 82 3f 86 0c 81 3f d0 b9 87 3f 9f 1d 84 3f
       1.0222033 1.0081947 1.060358 1.032154
000020 b7 4a 8c 3f 6f 61 8a 3f 9c fa 82 3f 2f 25 88 3f
       1.0960301 1.0810984 1.023273 1.0636348
000030 30 02 90 3f 59 2d 81 3f 4f 99 8a 3f 37 e6 86 3f
       1.1250668 1.0091964 1.0828036 1.0539006
000040 38 94 89 3f ba 3c 86 3f 6e b7 85 3f 9a 32 80 3f
       1.0748358 1.0487282 1.0446603 1.0015442
000050 62 9e 8a 3f 79 74 8f 3f 03 49 81 3f 70 95 80 3f
       1.0829585 1.120742 1.0100406 1.0045605
000060 30 61 8b 3f 4f 5f 89 3f 61 f4 81 3f 49 b7 80 3f
       1.0889034 1.0732211 1.0152704 1.0055934
000070 e6 e1 88 3f 51 77 8d 3f 95 72 88 3f 39 5f 8c 3f
       1.0693939 1.1052037 1.0659968 1.096656
000080 e9 5d 83 3f df 93 81 3f c5 0f 88 3f 3d 83 8a 3f
       1.0263034 1.0123252 1.0629812 1.0821301
000090 a0 c2 7f 3f 5e 20 86 3f 24 13 8c 3f 76 a3 88 3f
       0.9990635 1.0478628 1.0943341 1.0674884
0000a0 f4 70 85 3f db 4d 80 3f 0d 78 84 3f 8d e1 88 3f
       1.0425096 1.002376 1.0349137 1.0693833
0000b0 4f 17 8f 3f 60 42 88 3f f7 a4 87 3f 1e 28 80 3f
       1.1178988 1.0645256 1.0597218 1.0012243
0000c0 ed 7c 89 3f b8 64 88 3f 92 54 86 3f a3 b5 82 3f
       1.0741249 1.0655737 1.0494559 1.0211681
0000d0 78 fa 89 3f dc 53 85 3f 95 8f 8c 3f 0d 0b 86 3f
       1.0779562 1.0416217 1.0981318 1.0472122
0000e0 a4 e5 8a 3f d2 6a 80 3f 43 73 90 3f af 0e 83 3f
       1.0851331 1.0032599 1.1285175 1.0238856
0000f0 34 ad 88 3f 60 77 84 3f 50 12 89 3f 4b 99 83 3f
       1.0677857 1.034893 1.0708714 1.0281156

bias f4 [64]
000000 f7 00 7f 3e b4 35 7f 3e 11 f8 7e 3e 34 ee 7e be
       0.24902712 0.2492283 0.24899317 -0.24895555
000010 f2 f5 7e 3e dd 05 81 3e 24 61 7f 3e c2 ed 7e 3e
       0.24898508 0.25199786 0.249394 0.24895385
000020 de 04 7f 3e a3 49 7f be d2 1e 7f 3e 7b 29 7f be
       0.249042 -0.24930434 0.24914101 -0.24918167
000030 51 a0 7f 3e 78 00 7f be 16 18 7f be 89 ff 7e 3e
       0.249635 -0.24902523 -0.24911532 0.24902166
000040 f1 f8 7f 3e d9 f7 7e be 4c 25 7f be 44 ea 7e 3e
       0.24997307 -0.24899234 -0.24916571 0.24894053
000050 9a f7 80 3e 6d 1f 7f 3e a3 19 7f 3e 86 55 7f 3e
       0.25188905 0.24914332 0.24912123 0.24934968
000060 d1 00 7f be c6 e8 7e be 56 1c 7f 3e 6f cf 7e 3e
       -0.24902655 -0.24893484 0.24913153 0.24883817
000070 2d dc 7f 3e dc 12 7f be 8a 14 7f 3e 3e 09 7f be
       0.24986334 -0.24909538 0.24910179 -0.2490587
000080 ea 01 7f 3e c1 2e 7f 3e 93 80 7f 3e 20 14 7f 3e
       0.24903074 0.24920179 0.24951391 0.24910021
000090 63 ed 7e 3e 31 b9 7f be c8 34 80 3e 49 a4 7f be
       0.24895243 -0.24972989 0.2504027 -0.24965014
0000a0 4a f0 7e be 79 ee 7e 3e d5 48 7f 3e 12 29 7f be
       -0.2489635 0.24895658 0.24930127 -0.24918011
0000b0 4e d9 80 be e4 15 7f 3e 80 a2 7f 3e 2a 0b 80 be
       -0.2516579 0.24910694 0.24964333 -0.25008518
0000c0 c6 1d 7f 3e 8d 49 7f be 6a 01 7f be 0a 0a 7f be
       0.24913701 -0.24930401 -0.24902883 -0.24906173
0000d0 d9 3e 7f 3e 83 22 7f 3e d3 01 7f be 58 6c 7f 3e
       0.24926318 0.24915509 -0.2490304 0.24943674
0000e0 82 2f 7f be 35 e7 7e 3e e6 94 7f be 76 cc 7f be
       -0.24920467 0.24892886 -0.24959144 -0.2498034
0000f0 a0 fa 7e 3e 91 42 7f 3e ae 0d 7f 3e 32 12 7f be
       0.24900293 0.24927737 0.24907562 -0.24909285

running_mean f4 [64]
000000 09 fe 0f 3f 6d b9 22 3f 9b 5a 3c 3f 8a 25 14 3f
       0.56247 0.6356419 0.7357575 0.5786978
000010 32 c5 4f 3f f2 e8 16 3f 73 88 03 3f d0 64 55 3f
       0.8116027 0.58949196 0.5138008 0.8335695
000020 46 da 21 3f d5 d0 10 3f be 27 50 3f 10 c5 67 3f
       0.63223684 0.5656865 0.8131064 0.9053507
000030 40 a7 0f 3f 95 d2 6a 3f ba cd 0a 3f f2 de 56 3f
       0.5611458 0.9172757 0.54220164 0.8393394
000040 89 80 1a 3f 48 49 3e 3f 66 d3 4c 3f 3b 62 1f 3f
       0.6035238 0.7433057 0.8001007 0.6225926
000050 d0 58 0e 3f 26 b0 0e 3f b5 8d 1f 3f 67 c9 76 3f
       0.5560427 0.5573753 0.623256 0.96401066
000060 f5 cd 46 3f 65 6f 19 3f e7 f2 55 3f ba dd 51 3f
       0.77658015 0.599356 0.83573765 0.8197895
000070 2e b6 3e 3f a1 e9 0f 3f 60 b3 32 3f ea ce 2d 3f
       0.74496734 0.56215864 0.69804955 0.6789385
000080 26 06 4c 3f a1 58 47 3f cd 6b 1d 3f 42 15 25 3f
       0.7969688 0.7786961 0.61492616 0.6448556
000090 0a 74 4a 3f 9f 3a 4c 3f fe b5 09 3f 9e 2f 3f 3f
       0.7908331 0.7977695 0.53793323 0.74682033
0000a0 10 6d 5f 3f 56 92 78 3f 82 8b 1a 3f a0 bb 12 3f
       0.8727579 0.9709829 0.6036912 0.57317543
0000b0 26 e6 31 3f 50 69 23 3f f8 99 0a 3f e4 b9 73 3f
       0.69491804 0.6383257 0.5414119 0.9520552
0000c0 ba 58 20 3f 7c bb 23 3f 68 78 1b 3f 00 a6 4f 3f
       0.62635386 0.63957953 0.607306 0.8111267
0000d0 ba 99 1a 3f 54 ed 21 3f ba f2 c9 3e 3a e3 13 3f
       0.6039082 0.6325276 0.39442998 0.57768595
0000e0 36 5f 41 3f 40 36 70 3f b2 ac 1f 3f f6 cd 0d 3f
       0.75535905 0.9383278 0.6237289 0.55392396
0000f0 69 bc 02 3f 67 7a 27 3f d1 8e 3c 3f 99 22 2e 3f
       0.5106874 0.65421146 0.7365542 0.6802154

running_var f4 [64]
000000 12 4d 85 3e cc 5d 80 3e 75 1d dc 3e c5 87 a5 3e
       0.26035362 0.2507156 0.42991224 0.32330146
000010 a2 a7 1d 3d 8a ee fd 3d 7f 2d c5 3e e0 ef 84 3e
       0.038489945 0.12399013 0.38511273 0.2596426
000020 64 f9 4f 3e 8f 2a b7 3e 90 50 9f 3e b9 c5 cb 3c
       0.20309979 0.35774657 0.31116152 0.024874555
000030 80 c0 6b 3e ad f8 ab 3d db 3e 51 3e ff 42 84 3d
       0.23022652 0.083970405 0.20434134 0.06458091
000040 49 4c 1f 3e 32 2b c3 3e c3 4b 80 3e f5 bc 0c 3e
       0.15556444 0.38118893 0.25057802 0.13743956
000050 f5 e5 8c 3e 51 34 86 3e f4 eb cc 3e fd 3c 9b 3d
       0.27519193 0.2621179 0.40023768 0.07579992
000060 3d a9 32 3e 17 3a 90 3e f4 ca 10 3e e4 5c 12 3e
       0.17447372 0.2816932 0.1413992 0.14293247
000070 5c 4e 8c 3e 65 df 8d 3e bd 81 c1 3e f8 d2 b4 3e
       0.27403533 0.277095 0.37794295 0.35317206
000080 58 b1 3d 3e f1 b8 94 3e b8 f9 80 3e 61 5e 2a 3e
       0.18524683 0.2904735 0.2519052 0.16637565
000090 8a 2a c2 3d c0 e6 6d 3d 1f 91 31 3e 24 79 62 3e
       0.0948077 0.05808139 0.17340516 0.22116524
0000a0 ca 75 16 3d 70 39 1b 3d 48 e8 f0 3e 04 9f 91 3e
       0.036733426 0.037896574 0.47052217 0.28441632
0000b0 ff 78 0d 3e 95 09 8c 3e 01 e4 b1 3e 40 2b 09 3e
       0.13815688 0.2735106 0.34744266 0.13395405
0000c0 66 34 85 3e d7 b6 cc 3e 02 b4 a6 3e 05 7d 41 3e
       0.2601654 0.39983246 0.3255921 0.18895347
0000d0 6f ef aa 3e 0e 7e 7f 3e a0 45 83 3e 4d 75 5c 3e
       0.33385798 0.2495043 0.25639057 0.21529122
0000e0 3d 16 43 3e cb 01 c3 3d 6a b4 af 3e 4c 1c b7 3e
       0.19051452 0.09521826 0.34317333 0.35763776
0000f0 6c 75 a6 3e 68 7d b5 3e 06 b6 f8 3e f2 80 99 3e
       0.3251146 0.3544724 0.48576373 0.2998119

weight f4 [1, 64]
000000 d5 91 8d be 45 d7 bb bd a6 93 5b be 26 aa 4b 3e
       -0.27650324 -0.09171919 -0.21443042 0.19889125
000010 94 f5 45 be fd 99 8b bd 45 52 43 be e6 b2 65 be
       -0.19331962 -0.0681648 -0.19074352 -0.22431526
000020 4b 3e 87 be 5b 51 34 3e 1d 1b 1e be fb 0f 44 3e
       -0.26414713 0.1760916 -0.1544003 0.19146721
000030 cc 59 73 be 08 ac 23 3e 0e ac 4d 3e a3 1c 6f be
       -0.23764724 0.15983593 0.20085165 -0.23350768
000040 6f f3 25 be f8 18 3d 3e 72 76 3e 3e 64 87 ec bd
       -0.16206144 0.18466556 0.18599871 -0.11549261
000050 ab 9f 26 be a2 f9 96 be 39 8d e1 bd 75 66 d2 bd
       -0.16271846 -0.2948733 -0.11013264 -0.102734484
000060 65 81 82 3e b0 06 75 3e 4c eb 10 be ce 66 12 be
       0.25489345 0.23928332 -0.14152259 -0.1429703
000070 b2 c6 15 be 21 e5 75 3e 3c 66 59 be 52 93 88 3e
       -0.14626577 0.24013187 -0.21230406 0.26674896
000080 a4 b9 3e be 41 39 09 be 38 90 2e be 01 01 80 be
       -0.18625504 -0.13400747 -0.17047203 -0.25000766
000090 28 0b 1e be 5e 5f f6 3d 86 ff 36 be 82 fb 19 3e
       -0.15433943 0.120299086 -0.17870912 0.15037349
0000a0 0f 85 6e 3e be 41 27 be 88 83 30 be e3 9d 3e 3e
       0.23292945 -0.16333672 -0.17237675 0.18614917
0000b0 4d 3b 34 3e ba 1e 70 be 6d 18 27 be af 9e 82 3d
       0.17600746 -0.23449221 -0.16317911 0.06377923
0000c0 be 29 78 be 82 fd 2b 3e d9 cb 59 3e 8c 35 21 3e
       -0.24234673 0.16795924 0.21269168 0.15743083
0000d0 7d 9c 62 be bc 9f 42 be e5 6c 75 3e 1b 70 1c be
       -0.22130008 -0.19006246 0.23967321 -0.1527714
0000e0 35 db 65 3e e7 8e 42 be 16 52 53 3e 3c ef c6 3d
       0.22446902 -0.18999825 0.20636782 0.09713599
0000f0 a7 cb 8d be 12 6d 25 be 02 4c 72 be 38 a1 1b 3e
       -0.27694437 -0.16154888 -0.23661807 0.15198219
